weights/car_rec_color.pth (torch, 341500 bytes, 32 tensors)

feature.0.weight f4 [8, 3, 5, 5]
0	0x3cca387b	0.024685135
1	0x3e054d61	0.13017799
2	0x3dd1575a	0.10221739
3	0x3db63b81	0.08898068
4	0x3d19eead	0.037581135
5	0x3d7e293f	0.062051054
6	0x3e0479a8	0.12937033
7	0x3cfea234	0.031083204
8	0x3d65eaff	0.056132313
9	0x3ab162fc	0.0013533528
10	0xbd767bcc	-0.060176656
11	0x3c4abe47	0.012374467
12	0xbd76975e	-0.06020295
13	0xbd04bfc3	-0.03240944
14	0xbd87ac83	-0.06624701
15	0xbdab2e0a	-0.08358391
16	0xbc98e338	-0.018663034
17	0xbe1f76ce	-0.15572664
18	0xbd8bc4df	-0.068246596
19	0xbd852c5e	-0.06502603
20	0xbcc2f9be	-0.023800727
21	0xbd4acbeb	-0.049510878
22	0xbdc591ee	-0.096469745
23	0xbdab1185	-0.08352951
24	0xbdeaa9a5	-0.114581384
25	0xbdbc23f5	-0.09186546
26	0xbd305fc0	-0.043060064
27	0xbc75cfd8	-0.015003167
28	0xbd417917	-0.04723462
29	0xbce355ce	-0.027750876
30	0x3ca74631	0.020419212
31	0x3d74145e	0.059589736
32	0xbc1b7ad9	-0.009489738
33	0x3c573e6a	0.013137439
34	0x3bbfebc2	0.005856962
35	0x3d1085cc	0.03528385
36	0x3dae3148	0.085054934
37	0x3cfe3b1a	0.031034041
38	0x3d1d99e5	0.038476843
39	0x3d309b1c	0.043116674
40	0xbc870a69	-0.016484456
41	0x3d9dd35f	0.077063315
42	0xbd895735	-0.067060865
43	0x3bc2e69c	0.005947901
44	0x3c728637	0.014802507
45	0xbd66b261	-0.05632246
46	0x3d8dd3c1	0.069251545
47	0x3cc1daf3	0.023663973
48	0x3c900d1e	0.01758438
49	0xbc0ff526	-0.008786475
50	0xbd890db4	-0.06692067
51	0x3d0d9507	0.03456595
52	0x3d38fd53	0.045163464
53	0x3bc43a9a	0.005988431
54	0xbc7f56a5	-0.0155846225
55	0xbcc0c840	-0.023532987
56	0x3df38146	0.11889891
57	0x3d41476b	0.04718725
58	0x3d5062cf	0.05087548
59	0x3d464e56	0.04841455
60	0xbd167fc9	-0.03674296
61	0x3e135e01	0.14391328
62	0x3d8763c8	0.06610829
63	0x3d55fc90	0.052242815
64	0x3bb79f61	0.0056037162
65	0xbc3f4afc	-0.0116755925
66	0x3e749d3c	0.23888105
67	0x3dd2e66b	0.10297855
68	0x3e286a1a	0.16446725
69	0x3ddada9b	0.10686227
70	0xbd9cc8e8	-0.07655507
71	0x3e23f12b	0.16009967
72	0x3df78e96	0.12087743
73	0x3d87adf4	0.06624976
74	0x3cc179ff	0.023617743
75	0x3e17c62d	0.14821692
76	0x3dae7b44	0.08519605
77	0x3dc55191	0.09634698
78	0x3d591eda	0.053007938
79	0x3dfbb0b7	0.12289565
80	0x3dc44363	0.095831655
81	0xbcf82ae4	-0.03029389
82	0x3e80f888	0.25189614
83	0x3d649532	0.055806346
84	0x3d29dc9a	0.041470148
85	0x3e00c04c	0.12573355
86	0xbe535c17	-0.20640598
87	0x3e680fb4	0.2266224
88	0xbe603fd1	-0.21899344
89	0xbe1b41ba	-0.15161791
90	0x3dfbcaf7	0.12294572
91	0xbc8b2899	-0.016987132
92	0x3d0c7878	0.034294575
93	0x3c839e7c	0.016066782
94	0xbded0540	-0.11573267
95	0xbc0e6cf8	-0.008692972
96	0xbdb05431	-0.08609808
97	0xbe1a4fa0	-0.15069437
98	0xbdd6dad3	-0.10490956
99	0xbd334551	-0.043767277
100	0xbd1fc81e	-0.039009206
101	0xbdbae9c5	-0.09126619
102	0xbe39561b	-0.18099253
103	0xbe27030b	-0.16309755
104	0xbdc2f1b5	-0.09518758
105	0x3d278561	0.040898684
106	0xbd4ee4a8	-0.050511032
107	0x3e24cd29	0.16093887
108	0xbd1eedea	-0.03880111
109	0xbcf1b358	-0.029504463
110	0x3dd17392	0.102271214
111	0xbe9844a7	-0.29739878
112	0x3df9c5ea	0.12195952
113	0xbe984d28	-0.29746366
114	0xbe437de1	-0.19090988
115	0xbc8cfd56	-0.017210644
116	0xbe2884ef	-0.1645696
117	0xbe260145	-0.16211422
118	0xbde45512	-0.111490384
119	0xbe2ff987	-0.17185031
120	0x3d780153	0.060548138
121	0xbd640cff	-0.055676457
122	0xbe2780c5	-0.16357715
123	0xbd6b266a	-0.05740968
124	0x3d851fbd	0.06500194
125	0x3d83385b	0.06407233
126	0x3d748c1c	0.05970393
127	0xbdb0aeb4	-0.08627072
128	0x3b826780	0.0039796233
129	0xbbbe5a50	-0.005809106
130	0x3c4a02e2	0.012329789
131	0xbcbd78f4	-0.023128964
132	0x3e3250f7	0.17413698
133	0x3c197efe	0.009368656
134	0xbe02f750	-0.12789655
135	0x3dd5b482	0.1043482
136	0xbe04de27	-0.1297537
137	0x3eab7246	0.3348562
138	0xbdb2e8fa	-0.08735843
139	0xbde7a8f7	-0.11311524
140	0x3e2624e7	0.16225015
141	0x3e0480e2	0.1293979
142	0x3e220fa7	0.15826283
143	0x3e39d15c	0.1814627
144	0xbd3478bb	-0.04406045
145	0x3dd03c2f	0.10167729
146	0xba9baa10	-0.0011876244
147	0xbd92a7e6	-0.0716093
148	0xbd1533bf	-0.036426302
149	0xbddf658e	-0.10908042
150	0x3d888066	0.06665115
151	0x3df2cb9c	0.11855242
152	0x3e3a5984	0.1819821
153	0x3e162e44	0.14666086
154	0x3c11197c	0.008856174
155	0xbd3d4cfd	-0.046216
156	0x3dd908c0	0.10597372
157	0x3d290f1f	0.041274186
158	0x3d48e0d1	0.049042527
159	0x3dc21a30	0.09477651
160	0x3e235e45	0.1595393
161	0x3e0f8f57	0.14019524
162	0x3e0c16c0	0.13680553
163	0x3e150a8c	0.14554805
164	0x3d8227c1	0.06355239
165	0x3cd10dcd	0.025519276
166	0x3d8e7a2f	0.069568984
167	0x3e53e000	0.20690918
168	0x3e19e48e	0.15028593
169	0x3db54800	0.088516235
170	0xbd87f98c	-0.06639394
171	0x3ca0bdce	0.019621756
172	0x3d039984	0.032128826
173	0x3cfedbdc	0.031110696
174	0xbb7c4c86	-0.003849776
175	0x3e7ed488	0.24885762
176	0x3e3e613b	0.18591778
177	0x3e752d9b	0.23943178
178	0x3e5f6a76	0.21817955
179	0x3e228dcf	0.15874408
180	0x3d2632e9	0.040575895
181	0x3e0b7a57	0.13620888
182	0x3cd8eb61	0.026479425
183	0x3da302d5	0.079595245
184	0x3e0c1152	0.13678482
185	0x3e449c0b	0.1920015
186	0x3dc8e4f6	0.09809296
187	0x3d59c06d	0.053162027
188	0x3dd75679	0.1051454
189	0x3d3adfa5	0.04562344
190	0x3dd9aac5	0.10628275
191	0x3d1fdae3	0.039027106
192	0x3e06aa0f	0.1315081
193	0x3d734fcd	0.059402276
194	0x3d73e45f	0.059543964
195	0x3e10c983	0.1413937
196	0x3e03571e	0.12826201
197	0x3d87683f	0.0661168
198	0x3d57029e	0.05249273
199	0x3d6328aa	0.055458702
200	0xbd6196fd	-0.055075634
201	0xbe3b8cf0	-0.18315482
202	0xbe1e092d	-0.15433188
203	0xbdef4ec0	-0.11684942
204	0xbdc30748	-0.09522873
205	0xbea603c9	-0.32424763
206	0xbe3b4c81	-0.18290903
207	0xbea9651b	-0.3308495
208	0xbe6a842c	-0.22901982
209	0xbd9b0e4d	-0.07571087
210	0xbe016cbb	-0.12639134
211	0xbe7505c2	-0.23927978
212	0xbe9d7d5e	-0.3075971
213	0xbe67a5ab	-0.22621791
214	0xbe3db0e1	-0.18524505
215	0xbe3e5a34	-0.18589097
216	0xbe8d4066	-0.27588195
217	0xbe1a98c3	-0.15097336
218	0xbe800df2	-0.2501064
219	0xbe236374	-0.15955907
220	0xbdc5407e	-0.096314415
221	0xbdafc1c4	-0.0858188
222	0xbe07f0fa	-0.13275519
223	0xbe3ec7d3	-0.18630914
224	0xbdab51a8	-0.08365184
225	0xbc50c31a	-0.012741828
226	0x3d3dc80c	0.046333358
227	0xbc6744af	-0.014115497
228	0xbca549bf	-0.020176766
229	0xbd23fbe9	-0.040035162
230	0x3c8b437d	0.016999954
231	0x3d29430a	0.0413237
232	0x3d63b748	0.055594712
233	0x3e3cfa9c	0.18454975
234	0x3d69ae57	0.05705103
235	0x3db6efe3	0.089324735
236	0x3d929733	0.07157745
237	0x3d3177b2	0.04332704
238	0x3e17a456	0.14808783
239	0x3e1042ef	0.14088033
240	0x3e37c4f2	0.17946222
241	0x3e6e0e20	0.23247576
242	0x3e7c1201	0.24616243
243	0x3e8565b0	0.26054144
244	0x3e4103ea	0.1884915
245	0x3e135b0c	0.143902
246	0x3e3e9c5e	0.18614337
247	0x3e47e478	0.19520748
248	0x3e8ebd0f	0.27878615
249	0x3e749d10	0.2388804
250	0xbd53a32c	-0.051669285
251	0xbdcb0f18	-0.09914988
252	0xbe5070fd	-0.20355602
253	0xbe8fe461	-0.28103927
254	0xbea7e516	-0.32791966
255	0xbd386849	-0.04502133

feature.0.bias f4 [8]
0	0xbaaaa645	-0.0013019523
1	0xb99f96a5	-0.00030439082
2	0xba47fcd4	-0.0007628922
3	0xbb7ebc84	-0.0038869688
4	0x39e408e3	0.0004349417
5	0xbb804e8d	-0.003915614
6	0x3b88eba7	0.0041784826
7	0x3b116835	0.0022187356

feature.1.weight f4 [8]
0	0x3ec16508	0.37772393
1	0x3eb9c479	0.3628271
2	0x3ef0038b	0.46877703
3	0x3ead7bdd	0.33883563
4	0x3ef7eff9	0.48425272
5	0x3eff3bb2	0.4985023
6	0x3ebbfffa	0.36718732
7	0x3ee1f269	0.44130257

feature.1.bias f4 [8]
0	0xbdabc360	-0.08386874
1	0x3c92dd3c	0.017927758
2	0x3e58e062	0.21179345
3	0x3eca8184	0.39551938
4	0x3df9a05b	0.121887885
5	0xbdfc5722	-0.12321307
6	0x3e8a4893	0.27008495
7	0x3e9bcd6b	0.3043016

feature.1.running_mean f4 [8]
0	0xc1ecab59	-29.583666
1	0x41c6937a	24.82201
2	0xc1812566	-16.143261
3	0xc1ca81ee	-25.313442
4	0x414bda80	12.740845
5	0x41cafe30	25.374115
6	0xc0b59859	-5.674847
7	0x41af89a2	21.942204

feature.1.running_var f4 [8]
0	0x45c7e272	6396.3057
1	0x45aa64eb	5452.6147
2	0x4686a350	17233.656
3	0x45e92326	7460.3936
4	0x45f312d8	7778.3555
5	0x4606ed01	8635.251
6	0x45e9eddf	7485.734
7	0x46827098	16696.297

feature.4.weight f4 [16, 8, 3, 3]
0	0x3c59e91f	0.013300209
1	0x3d0e8e05	0.03480341
2	0xbc57d752	-0.013173895
3	0x3e332984	0.17496306
4	0x3d875582	0.06608106
5	0x3d1e98c3	0.038719904
6	0x3c7cbb3c	0.0154254995
7	0xbc24dbd3	-0.010062176
8	0xbd870405	-0.065925635
9	0xbe17e58c	-0.14833659
10	0xbcdf9aec	-0.027295552
11	0xbd6dcc98	-0.058056444
12	0xbdc3dca5	-0.09563569
13	0xbda200ca	-0.07910307
14	0xbba27407	-0.004957679
15	0xbd95a164	-0.073061734
16	0xbd71b256	-0.059007965
17	0x3d8fabd3	0.07015195
18	0xbd255c02	-0.04037095
19	0xbd94cdf3	-0.07265844
20	0xbd25602b	-0.040374916
21	0xbd9b9675	-0.07597057
22	0xbe504744	-0.20339686
23	0xbe1402a7	-0.14454137
24	0x3da2e398	0.07953566
25	0xbcf383fb	-0.02972602
26	0xbd8bd346	-0.068274066
27	0xbda98a2f	-0.082783096
28	0xbdd0f1db	-0.1020238
29	0xbdc70934	-0.09718552
30	0xbd27d1bd	-0.040971506
31	0xbe061a2f	-0.13095926
32	0x3c1774ad	0.009244126
33	0xbd6f3f1a	-0.058409788
34	0xbd9d2ec1	-0.07674933
35	0xbcb05323	-0.021524018
36	0xbcb5b81b	-0.022182515
37	0xbce2411a	-0.027618933
38	0x3d898495	0.06714741
39	0x3cf4312b	0.029808601
40	0xbbcfdb4c	-0.006343281
41	0x3de4f5f9	0.11179728
42	0xbc337ed8	-0.010955535
43	0x3c9715a0	0.018442929
44	0x3df86c7b	0.12130066
45	0xbda606f6	-0.081067964
46	0xbe205da0	-0.15660715
47	0xbdcb5b31	-0.09929503
48	0x3ce723fb	0.028215399
49	0x3c1b8697	0.009492538
50	0xbc34f9c3	-0.011045876
51	0xbc00bb86	-0.007857209
52	0x3c41c15d	0.011825887
53	0x3cd28d7e	0.025702234
54	0xbe250553	-0.16115312
55	0xbe22166b	-0.15828864
56	0xbe4a5a71	-0.19761063
57	0xbe3f32a0	-0.18671656
58	0xbe365ddb	-0.1780924
59	0xbe2bd31c	-0.1677975
60	0xbdad380a	-0.08457954
61	0xbe007343	-0.12543969
62	0xbd67a47d	-0.056553353
63	0x3d1ac043	0.03778101
64	0x3d71c88c	0.059029147
65	0xbc375726	-0.011190211
66	0x3ddeb505	0.108743705
67	0x3db89ed6	0.090146706
68	0x3dce9640	0.10087252
69	0xbc2f43d7	-0.010697327
70	0xbcef72f6	-0.029229622
71	0xbceddb2b	-0.029035171
72	0xbd7683b8	-0.06018421
73	0xbe1577a1	-0.14596416
74	0xbda6f3d7	-0.081519775
75	0xbd4af9ef	-0.04955476
76	0xbdc894be	-0.09793995
77	0x3d130630	0.035894573
78	0x3c6aa0d9	0.014320576
79	0xbd12d4ea	-0.035847582
80	0x3d14e72e	0.036353283
81	0xbdebb3bf	-0.11508893
82	0xbd5fac41	-0.054607634
83	0xbd4f38a0	-0.05059111
84	0xbe286955	-0.16446431
85	0xbdecd295	-0.11563603
86	0xbda36c66	-0.0797966
87	0xbcdc22dc	-0.026872091
88	0xbd87d867	-0.06633072
89	0xbc76359f	-0.015027433
90	0xbe4772e7	-0.19477426
91	0xbde164ad	-0.110055305
92	0xbd1760b7	-0.03695747
93	0x3e0d16c2	0.13778213
94	0x3df2df5c	0.11859009
95	0x3d2463ea	0.040134348
96	0xbcdac0a7	-0.026703192
97	0xbc08f233	-0.008358526
98	0xba927bc6	-0.0011175803
99	0x3db14d65	0.0865734
100	0x3d921619	0.07133121
101	0xbc38b9f4	-0.011274803
102	0x3cd7a1a1	0.026322188
103	0xbd9a9236	-0.07547419
104	0xbd4a578a	-0.04939989
105	0xbdc9008a	-0.09814556
106	0xbd7be66b	-0.06149904
107	0xbdc2a128	-0.09503394
108	0x3e249811	0.16073634
109	0x3e186d0b	0.14885347
110	0x3d01ad41	0.03165937
111	0xbdec50d9	-0.11538858
112	0xbd959612	-0.07304014
113	0xbde50f3d	-0.11184547
114	0xbd86a575	-0.06574527
115	0xbdcb300f	-0.09921276
116	0xbd812340	-0.063055515
117	0xbe3aeda5	-0.18254717
118	0xbdb6483b	-0.089004956
119	0x3d0eddca	0.034879483
120	0x3d1800a9	0.037110005
121	0x3dde9070	0.10867393
122	0x3e41b96f	0.18918394
123	0x3ded836e	0.11597334
124	0x3e26c6c3	0.16286759
125	0x3e13f964	0.14450604
126	0x3dec8ef6	0.11550705
127	0xbd11b9fb	-0.035577755
128	0x3defe8ad	0.11714301
129	0x3d4a8edb	0.049452644
130	0xbcf56f2b	-0.029960236
131	0xbd47c3be	-0.04877066
132	0xbc962645	-0.018328795
133	0xbd0d1ad5	-0.034449417
134	0x3cfc510f	0.03080037
135	0x3e695eae	0.22790024
136	0x3da12298	0.07867926
137	0xbe4bef4d	-0.19915505
138	0xbe07ba38	-0.1325463
139	0xbe71b41a	-0.2360386
140	0xbe84c62c	-0.25932443
141	0x3cb4f0cd	0.022087479
142	0xbd661c71	-0.056179468
143	0x3da714d9	0.08158273
144	0xbbe01661	-0.0068386053
145	0xbcc8d6c7	-0.024516476
146	0xbd6c1ba5	-0.05764355
147	0xbe2e3903	-0.17013936
148	0xbe817145	-0.2528173
149	0xbe0a154d	-0.13484688
150	0xbdbd62dc	-0.092473716
151	0xbdea8141	-0.114504345
152	0x3cbe8a48	0.023259297
153	0xbe0f48a3	-0.13992552
154	0xbe56f3c1	-0.20991422
155	0x3d150001	0.036376957
156	0x3c7f25f3	0.015573013
157	0xbdcf27ca	-0.10115011
158	0xbe241d42	-0.16026786
159	0x3e0c6231	0.13709332
160	0x3d1860bb	0.037201624
161	0xba15f1d7	-0.0005719936
162	0xbe16701e	-0.14691207
163	0xbdeb4af0	-0.114889026
164	0xbd328d04	-0.043591514
165	0xbe45360f	-0.19258903
166	0xbe899810	-0.26873827
167	0xbe0addee	-0.13561222
168	0x3dc7302f	0.09725987
169	0x3d9de2d5	0.077092804
170	0x3de14c11	0.11000837
171	0xbe2f8a12	-0.17142513
172	0xbdffb37e	-0.12485407
173	0xbcf7c760	-0.030246437
174	0xbd64571e	-0.055747144
175	0x3ce82ed7	0.028342647
176	0x3d868b4a	0.06569536
177	0x3c438ff6	0.011936178
178	0x3ceb6c9c	0.028738312
179	0x3d9c14f8	0.07621187
180	0xbe151828	-0.14559996
181	0xbe1f8d29	-0.15581192
182	0x3d21034a	0.039309777
183	0xbc8163ea	-0.015794713
184	0xbd74798f	-0.05968624
185	0x3d831a61	0.06401516
186	0x3df40c7e	0.11916445
187	0x3db8bff1	0.09020985
188	0xbd0156e9	-0.031577025
189	0xbcbcc224	-0.023041792
190	0xbddc58b2	-0.10759105
191	0x3cdd5292	0.027016912
192	0xbd4d2829	-0.050087128
193	0xbe12a49a	-0.14320603
194	0xbda5bca6	-0.080926225
195	0xbcccb00c	-0.02498629
196	0xbe3155cb	-0.17317884
197	0xbce5f37a	-0.0280702
198	0xbe54ecb8	-0.20793426
199	0xbe438921	-0.1909528
200	0x3b9daa28	0.004811544
201	0x3e39ee12	0.18157223
202	0x3c5b026e	0.0133672785
203	0xbdadb504	-0.084817916
204	0x3e25df02	0.16198352
205	0x3de11bdd	0.109916426
206	0x3dad0d1a	0.084497645
207	0xbafece56	-0.0019440155
208	0xbcb63aae	-0.022244778
209	0x3d42937c	0.047503933
210	0xbdb21670	-0.08695686
211	0xbe009384	-0.12556273
212	0xbd5f53dc	-0.054523334
213	0x3d92b5f5	0.07163612
214	0xbdb68597	-0.08912199
215	0x3d09a755	0.033606846
216	0xbdda38cc	-0.106553644
217	0xbd8f7b8c	-0.070059866
218	0xbbef11a7	-0.0072958055
219	0x3e1bc195	0.15210564
220	0x3e2ebf49	0.17065157
221	0x3e2590a5	0.16168459
222	0x3e27da42	0.16391852
223	0x3dc77833	0.09739723
224	0x3e251071	0.16119553
225	0xbdfe6c25	-0.12422971
226	0xbdce738b	-0.10080632
227	0xbd954bce	-0.07289849
228	0x3c3cf4a1	0.011532933
229	0x3c376c7c	0.011195298
230	0x3d1b6435	0.03793736
231	0x3db3cfe5	0.08779887
232	0x3d9a9b99	0.07549209
233	0x3deff996	0.117175266
234	0xbd73d88b	-0.059532683
235	0xbd80c616	-0.06287782
236	0xbda2f314	-0.0795652
237	0x3d205e96	0.039152704
238	0x3e0a8219	0.13526191
239	0x38ac45cd	8.2146005e-05
240	0x3de4bfc9	0.111693926
241	0x3e4b09bd	0.19827934
242	0x3e163017	0.14666782
243	0xbdd3cdf3	-0.10342016
244	0x3d2c5a37	0.042078223
245	0x3d6cbdc5	0.057798166
246	0x3d5a6af8	0.05332467
247	0x3e004d0f	0.12529396
248	0x3e0450b9	0.12921418
249	0x3d4d86e5	0.050177474
250	0x3d8b3ed0	0.0679909
251	0xbcd982d3	-0.02655164
252	0x3c9f5b00	0.019452572
253	0x3c7b3f2d	0.0153348865
254	0xbd5eebb4	-0.054424003
255	0xbb08b50c	-0.0020859865

feature.4.bias f4 [16]
0	0xb9141f41	-0.00014126023
1	0x3b304f8b	0.002690288
2	0xbb4d1d85	-0.0031298113
3	0xbb8b8c6f	-0.0042586843
4	0xbb07d188	-0.0020724256
5	0x3b03a3e5	0.0020086702
6	0x3b677632	0.0035318253
7	0x3a67c317	0.00088410213
8	0x3b99e889	0.00469691
9	0xbb976de3	-0.004621254
10	0x3b4576d4	0.0030130642
11	0x3b7f944d	0.0038998306
12	0xbb06ad5f	-0.0020550115
13	0xb9c08191	-0.00036717628
14	0x3b19b87c	0.0023455909
15	0xbb893239	-0.004186895

feature.5.weight f4 [16]
0	0x3efb0afb	0.49031815
1	0x3ec4043d	0.38284484
2	0x3eb1e56f	0.34745356
3	0x3e837711	0.25676778
4	0x3ec9050b	0.3926166
5	0x3ebd60ea	0.36988002
6	0x3ed7aed5	0.42125574
7	0x3ec0c9a3	0.37653837
8	0x3eb3aba3	0.35091886
9	0x3eaf11d0	0.34193277
10	0x3ea5f7f4	0.32415736
11	0x3ea611de	0.32435507
12	0x3ee29d8a	0.44260818
13	0x3efd6f34	0.49498904
14	0x3ec565d4	0.3855425
15	0x3ee1397a	0.43989164

feature.5.bias f4 [16]
0	0xbe36ae54	-0.17839938
1	0x3c663a14	0.014051933
2	0x3df83412	0.121193066
3	0x3d8c5504	0.06852153
4	0x3dd0af94	0.10189739
5	0x3ced36fd	0.028956885
6	0xbc82a45a	-0.01594751
7	0xbc197e25	-0.009368454
8	0xbd8201d3	-0.06348004
9	0xbcf53767	-0.029933644
10	0x3d4b6203	0.049654018
11	0x3d4cfc8f	0.050045546
12	0x3c7b1afd	0.015326259
13	0x3cc9095e	0.0245406
14	0xbdb33546	-0.087503955
15	0xbda0df6e	-0.07855116

feature.5.running_mean f4 [16]
0	0xbf87e976	-1.0618122
1	0xbf045664	-0.5169432
2	0xbf537007	-0.82592815
3	0x3f451194	0.7697995
4	0xbf4e1093	-0.8049404
5	0xbf2319ef	-0.63711447
6	0xbf5189b6	-0.81850755
7	0xbf05775c	-0.5213525
8	0xbf322167	-0.6958222
9	0xbf36060e	-0.7110299
10	0xbe229ebb	-0.15880863
11	0xbe5b5f49	-0.21423067
12	0xbf40442a	-0.7510401
13	0xbeadc041	-0.3393574
14	0xbf057a96	-0.52140176
15	0xbf85c0c6	-1.0449455

feature.5.running_var f4 [16]
0	0x3e96f9bd	0.2948741
1	0x3e2ffd58	0.17186487
2	0x3e1faa6b	0.15592353
3	0x3e203332	0.1564453
4	0x3ecaca28	0.39607358
5	0x3e81a013	0.2531744
6	0x3e41040d	0.18849202
7	0x3e8c6553	0.27421054
8	0x3dd57848	0.104233325
9	0x3e10791a	0.14108697
10	0x3e2ef15c	0.17084259
11	0x3e32e992	0.17471913
12	0x3e213545	0.15742977
13	0x3ef32c72	0.47494847
14	0x3e126cac	0.14299268
15	0x3e374914	0.17898971

feature.8.weight f4 [32, 16, 3, 3]
0	0xbc852eef	-0.016257731
1	0x3d82871a	0.06373425
2	0x3c9c6166	0.019089412
3	0xbca2b3f0	-0.019861192
4	0xbd5b3fbd	-0.053527582
5	0xbe010fee	-0.12603733
6	0x3d5e911c	0.054337606
7	0x3c7256aa	0.01479117
8	0xbc15c3c3	-0.0091409115
9	0xbd12a1c0	-0.035798788
10	0xbd19020d	-0.03735547
11	0x3daf67d1	0.08564723
12	0x3dece42d	0.115669586
13	0x3dcd05c0	0.10010862
14	0x3d57ede9	0.052717123
15	0xbcbdcfa4	-0.0231703
16	0x3ca81893	0.02051953
17	0xbb8b8e1e	-0.004258885
18	0x3d45e88b	0.048317473
19	0xbcc98261	-0.024598302
20	0xbdab2b9d	-0.08357928
21	0xbe1415a8	-0.14461386
22	0xbd822dc0	-0.06356382
23	0xbd7a14ae	-0.061054878
24	0x3d1c6fcf	0.038192566
25	0x3dd42805	0.103591956
26	0x3d3db1f8	0.046312302
27	0xbdf695f5	-0.12040321
28	0xbd8aa4bb	-0.06769701
29	0xbdf36b5e	-0.11885713
30	0xbc821650	-0.01587978
31	0xbcc9a68c	-0.024615549
32	0xbda57992	-0.08079828
33	0x3c880448	0.016603604
34	0x3a99b81f	0.0011727846
35	0xbd6ff8ca	-0.058586873
36	0xb97569de	-0.0002340446
37	0x3db1d62d	0.08683429
38	0xbcc5f6bb	-0.024165502
39	0xbd9c1a08	-0.076221526
40	0xbd1112d8	-0.03541836
41	0x3b7229ca	0.0036951178
42	0xbd0a4af0	-0.033762872
43	0x3c34ec71	0.0110427
44	0x3d1c7dc4	0.038205877
45	0x3cf25a1b	0.029583981
46	0x3d75cf0d	0.060011912
47	0xbdd23ef8	-0.102659166
48	0x3becc6af	0.0072258334
49	0x3cdbe9e2	0.026844922
50	0xbc863b01	-0.016385557
51	0xbcd80d2e	-0.026373472
52	0xbc9bdd2e	-0.019026365
53	0x3da4c0aa	0.0804456
54	0x3d7ccc68	0.061718374
55	0xbc22c8af	-0.009935542
56	0x3d32a5c3	0.043615114
57	0x3df51a91	0.11967958
58	0x3ce25fa4	0.027633496
59	0x3d3bdefe	0.04586696
60	0x3d0f40d1	0.034973923
61	0xbd7621a1	-0.060090665
62	0x39ddaaff	0.00042279807
63	0xbb37fbcc	-0.0028073667
64	0x3c9e9265	0.019356916
65	0x3c190480	0.009339452
66	0x3e3af4c2	0.1825743
67	0x3dafc251	0.08581985
68	0x3e08e357	0.13367973
69	0x3dc4cb32	0.09609069
70	0x3d1527f4	0.036415055
71	0xbd2a0d68	-0.04151669
72	0x3ce9857b	0.028506031
73	0x3e23479e	0.15945289
74	0x3d29e042	0.041473635
75	0xbdd3b320	-0.103369
76	0xbafc99e9	-0.0019271943
77	0xbd25bedc	-0.04046522
78	0xbc1c79a8	-0.0095504895
79	0xbdc0493b	-0.093889676
80	0xbe08f93b	-0.13376324
81	0xbdec3150	-0.11532843
82	0xbdcde5b0	-0.10053575
83	0x3d95a590	0.07306969
84	0xbd8ae9dc	-0.067828864
85	0xbd56674c	-0.052344605
86	0xbd8a4c61	-0.06752849
87	0x3d472cff	0.048626896
88	0xbc09e8cf	-0.008417322
89	0x3ccd6f90	0.025077611
90	0x3e246d23	0.16057257
91	0x3d7ea369	0.06216756
92	0x3d8c0b20	0.068380594
93	0x3c3fc57a	0.011704797
94	0x3a9f9491	0.0012175014
95	0xbdb54798	-0.08851546
96	0xbe20327d	-0.1564426
97	0xbe0515cf	-0.129966
98	0xbcaffe3f	-0.021483539
99	0xbc50e127	-0.012748993
100	0x3cb4562a	0.022013742
101	0xbcf8b854	-0.030361332
102	0xbd47b124	-0.04875292
103	0xbc333811	-0.01093866
104	0xbd5f6905	-0.054543514
105	0xbb18711f	-0.0023260785
106	0xbd299e40	-0.041410685
107	0x3c6513e4	0.013981793
108	0xbdf4afe3	-0.1194761
109	0xbd8939c1	-0.06700469
110	0xbd3d88f6	-0.046273194
111	0x3b2308a6	0.002487698
112	0xbd8e6892	-0.06953539
113	0xbd1359ad	-0.035974193
114	0x3d450d17	0.048108187
115	0x3d0b914f	0.034074124
116	0xbcd197aa	-0.025585014
117	0xbe2be1fa	-0.16785422
118	0xbda98712	-0.08277716
119	0xbbd24074	-0.006416375
120	0xbccc66e8	-0.024951413
121	0xbcba105c	-0.022712879
122	0x3b9b86ed	0.004746309
123	0xbd193f2b	-0.037413757
124	0x3c47d4fe	0.012196777
125	0xbdaf565e	-0.08561395
126	0x3d2af79b	0.04174004
127	0xbd9b831f	-0.07593369
128	0xbc3e8895	-0.011629243
129	0x3d0a2480	0.033726215
130	0x3d10bc20	0.03533566
131	0x3d394231	0.04522914
132	0xbd0200b4	-0.03173895
133	0xbd4ca200	-0.049959183
134	0x3cae6e22	0.02129275
135	0x3d85aaad	0.065266944
136	0x3d9312a3	0.07181289
137	0x3e1a7ac4	0.15085894
138	0xbd5236f6	-0.051321946
139	0xbc9c3a2c	-0.019070707
140	0xbd0a8917	-0.033822145
141	0xbdb33dde	-0.087520346
142	0xbda82a3f	-0.08211183
143	0xbd8d4c6a	-0.068993405
144	0xbd22d561	-0.039754275
145	0xbcfec408	-0.031099334
146	0x3d40fb71	0.047114793
147	0x3c9d752d	0.019220913
148	0xbc75a171	-0.014992104
149	0xbc8c736d	-0.017144883
150	0x3ce86d3b	0.028372398
151	0x3d543e3f	0.051817175
152	0x3e316b71	0.17326142
153	0x3d1ede4f	0.03878623
154	0xbd5353c8	-0.051593572
155	0xbd112e4b	-0.03544454
156	0xbd09108f	-0.033463057
157	0xbdd4738f	-0.103736036
158	0x3c9b9f41	0.018996837
159	0xbb941544	-0.0045191366
160	0x3b75e3e2	0.0037519862
161	0x3d70f00d	0.05882268
162	0xbd7120e3	-0.058869254
163	0x3d464fdb	0.048416
164	0x3c8adf0a	0.016952056
165	0x3bcb6956	0.0062076254
166	0x3df270e2	0.11837937
167	0xbd01e5ff	-0.031713482
168	0x3d0fa1db	0.035066467
169	0x3d553c54	0.052059487
170	0x3cc31080	0.023811579
171	0x3e6046d9	0.21902026
172	0xbc599126	-0.013279235
173	0x3d44dba1	0.048061017
174	0xbcb41694	-0.021983422
175	0xbdd74586	-0.105113074
176	0xbd123467	-0.035694506
177	0xbdd1a7b2	-0.102370635
178	0xbe220999	-0.15823974
179	0x3c4e118e	0.012577428
180	0xbdb437c3	-0.08799698
181	0x3d4b857d	0.04968785
182	0x3d9e97ea	0.07743819
183	0xbe19fe21	-0.15038349
184	0xbd3a95fb	-0.04555319
185	0x3d3f5366	0.046710394
186	0xbe095115	-0.13409837
187	0xbda1da90	-0.079030156
188	0xbda12846	-0.0786901
189	0xbda92b8a	-0.082602575
190	0x3d3874aa	0.045033135
191	0xbd7a2c74	-0.06107755
192	0x3d9b2617	0.075756244
193	0x3dcf0fd1	0.101104386
194	0xbc9d767b	-0.019221535
195	0xbbdb3d7b	-0.0066906787
196	0x3cd8bcbf	0.026457189
197	0xbc514e44	-0.012775008
198	0x3d66ddf1	0.056364004
199	0x3bc7608e	0.0060845083
200	0xbd0d7b6f	-0.034541544
201	0xbde94f4a	-0.11392076
202	0x3d6f009c	0.05835019
203	0x3da4b94e	0.080431566
204	0xbde00a40	-0.10939455
205	0xbd8b660e	-0.06806575
206	0xbd9c6acc	-0.076375574
207	0xbc89d695	-0.016825953
208	0x3d4f30da	0.050583698
209	0xbcc34a0c	-0.02383902
210	0x3c92b837	0.017910106
211	0x3ac81d87	0.0015267589
212	0xbe080dbe	-0.13286492
213	0x3e0a4273	0.13501911
214	0xbd1277dd	-0.03575884
215	0x3d4bc90f	0.04975229
216	0x3d0ad14c	0.033891007
217	0xbd61b03a	-0.055099703
218	0x3ca5415f	0.020172773
219	0xbd59f25d	-0.05320965
220	0xbacf518c	-0.001581715
221	0xbdacb33f	-0.08432626
222	0x3d4c94ba	0.049946524
223	0x3df0e44a	0.11762293
224	0x3da3d53a	0.07999654
225	0xbca71e77	-0.020400269
226	0x3c91a07f	0.017776726
227	0xbdb1d1f0	-0.086826205
228	0xbc8fa298	-0.017533585
229	0x3c25db46	0.01012308
230	0xbdfbf334	-0.12302247
231	0x3d8a386a	0.067490414
232	0x3b037dab	0.0020063918
233	0xbc342f62	-0.010997625
234	0x3bf70596	0.0075385077
235	0xbd203f94	-0.039123133
236	0xbd7e58ea	-0.062096514
237	0x3dd3b7df	0.10337805
238	0xbc058ee1	-0.008151741
239	0xbc2073dd	-0.009793249
240	0x3dda7933	0.10667648
241	0x371ffab4	9.53551e-06
242	0x3e07e4c0	0.13270855
243	0xb8d4c09d	-0.00010144825
244	0xbd3e0804	-0.046394363
245	0x3d8db7ca	0.069198206
246	0xbc8ec84b	-0.017429492
247	0xbda2ebcd	-0.07955132
248	0xbc9e639a	-0.019334603
249	0xbd9b4536	-0.0758156
250	0xbe1673ad	-0.14692564
251	0xbd872bd7	-0.06600159
252	0x3d898c46	0.06716208
253	0xbd5e13bb	-0.054218035
254	0xbcecbc68	-0.028898433
255	0x3e219731	0.15780331

feature.8.bias f4 [32]
0	0x3ae5d57b	0.0017534936
1	0xbb25b8a1	-0.002528705
2	0xbb6072c8	-0.0034248102
3	0x3ada5db7	0.0016660009
4	0xbb5442fb	-0.0032388556
5	0xbb4a60f4	-0.0030880542
6	0xbad926b0	-0.0016567316
7	0x3b10c963	0.0022092692
8	0x3b22f67f	0.0024866161
9	0xb9a65771	-0.00031727136
10	0xb9b7255e	-0.0003493232
11	0x3acf7b99	0.0015829682
12	0x3b04f677	0.0020288506
13	0x3ae07177	0.0017123659
14	0xbb307312	-0.0026924056
15	0x3ae3b186	0.0017371632
16	0x3a91700a	0.0011096012
17	0x3b4fcc17	0.003170734
18	0x3b2c77cf	0.0026316529
19	0x3b1cf861	0.0023951756
20	0x3875f582	5.86412e-05
21	0xbad31ae1	-0.0016106033
22	0x3b0e5fe5	0.0021724638
23	0xbb0c05ac	-0.0021365685
24	0xb990206f	-0.00027489985
25	0x3ae0a383	0.0017138574
26	0xbb5df913	-0.0033870384
27	0x3b59d683	0.0033239431
28	0xba91f05d	-0.0011134256
29	0xbb46b902	-0.0030322676
30	0x3ad1eff3	0.0016016945
31	0x3b150d55	0.0022743542

feature.9.weight f4 [32]
0	0x3e893f07	0.268059
1	0x3e862093	0.26196727
2	0x3e9f6d60	0.31138134
3	0x3e8754f7	0.2643201
4	0x3eab4e15	0.3345801
5	0x3e947553	0.2899576
6	0x3e7692cd	0.24079438
7	0x3e9c4c08	0.30526757
8	0x3e987e54	0.2978388
9	0x3e9831a0	0.2972536
10	0x3e82a50d	0.2551655
11	0x3e8a28c8	0.2698424
12	0x3e9e1b96	0.3088042
13	0x3e8f69ac	0.2801031
14	0x3ec74d7d	0.38926306
15	0x3eab6920	0.33478642
16	0x3e7244e3	0.2365909
17	0x3eb4b8bc	0.3529719
18	0x3ecd84f8	0.4014051
19	0x3ea53241	0.32264903
20	0x3e9c5e59	0.30540732
21	0x3ea46482	0.3210793
22	0x3e9090f4	0.2823559
23	0x3e970565	0.29496303
24	0x3eba1c1d	0.36349574
25	0x3ea0b6b8	0.31389403
26	0x3ea49e2f	0.32151935
27	0x3e995760	0.29949474
28	0x3eb627a9	0.35577133
29	0x3e9194d0	0.28433847
30	0x3eb01790	0.34392977
31	0x3e83d4fb	0.2574843

feature.9.bias f4 [32]
0	0xbdc4808e	-0.09594832
1	0xbd8a5141	-0.06753779
2	0xbdb0c439	-0.086311765
3	0xbd2a5762	-0.04158724
4	0xbe0c2bd1	-0.1368859
5	0xbdbe77be	-0.09300183
6	0xbd109c02	-0.03530503
7	0xbe09933d	-0.13435073
8	0xbe3c2351	-0.18372847
9	0xbe09121f	-0.13385819
10	0xbdacd0b3	-0.08438244
11	0xbda0388f	-0.07823288
12	0xbe25ba15	-0.16184266
13	0xbe0aebc6	-0.13566503
14	0xbe202fdc	-0.15643257
15	0xbdfa1fdd	-0.12213109
16	0x3aa39b8a	0.0012482267
17	0xbe275db7	-0.16344343
18	0xbe938175	-0.28809705
19	0xbdf46c08	-0.11934668
20	0xbe0fc869	-0.14041294
21	0xbd834b1c	-0.0641081
22	0xbdd126fd	-0.102125145
23	0xbd908e4c	-0.07058391
24	0xbe24a1ed	-0.16077395
25	0xbd53c55b	-0.051701885
26	0xbe1b80cf	-0.15185855
27	0xbca1f9a7	-0.019772364
28	0xbe0cf33a	-0.13764659
29	0xbd207620	-0.039175153
30	0xbd107672	-0.03526921
31	0xbd96e5d0	-0.07368052

feature.9.running_mean f4 [32]
0	0xbe886840	-0.26642036
1	0xbe1418ca	-0.14462581
2	0x3e88c8ac	0.267156
3	0xbe925c8d	-0.28586236
4	0xbe95e30d	-0.29274788
5	0xbe17979a	-0.14803925
6	0x3b2c62f7	0.0026304105
7	0xbe187ce1	-0.14891388
8	0xbe876df2	-0.2645107
9	0xbe65c0fc	-0.22436899
10	0xbddb6f81	-0.10714627
11	0x3d200831	0.039070312
12	0xbe15ff67	-0.1464821
13	0xbe020aec	-0.12699479
14	0xbf0d02c2	-0.55082333
15	0xbdf99d18	-0.121881664
16	0xbeb87cc9	-0.36032704
17	0xbeb6b5f7	-0.35685703
18	0xbe9a7fa4	-0.30175507
19	0xbdfcc595	-0.12342373
20	0xbedc575a	-0.43035394
21	0xbe0d6125	-0.13806589
22	0x3d86fa04	0.065906554
23	0xbe66024f	-0.22461818
24	0xbed7b578	-0.42130637
25	0xbea7a316	-0.32741612
26	0xbc134bef	-0.008990272
27	0xbed4a0ce	-0.41528934
28	0xbef30a93	-0.47469005
29	0xbee298b9	-0.44257143
30	0xbf057058	-0.5212455
31	0xbe298371	-0.16554047

feature.9.running_var f4 [32]
0	0x3d81ddd4	0.063411385
1	0x3d112b72	0.035441823
2	0x3d7b8a06	0.061410926
3	0x3d642e6e	0.05570834
4	0x3d88923f	0.06668519
5	0x3d3e4d4e	0.046460442
6	0x3d843bd7	0.06456726
7	0x3d781da4	0.060575143
8	0x3d35c81c	0.044380292
9	0x3d2f973c	0.042868838
10	0x3d54ed1d	0.05198394
11	0x3d40570f	0.046958026
12	0x3d3a2695	0.04544695
13	0x3d213d1e	0.039364927
14	0x3dc9dfe4	0.09857157
15	0x3d87cff7	0.06631463
16	0x3d37203b	0.04470847
17	0x3d82cf81	0.063872345
18	0x3d90f65f	0.070782416
19	0x3d8e2011	0.0693971
20	0x3d808137	0.06274646
21	0x3d872c83	0.06600287
22	0x3d4d5b76	0.050136052
23	0x3d5d5513	0.05403621
24	0x3d9ed26e	0.0775498
25	0x3d97b066	0.07406692
26	0x3d6be48f	0.057591017
27	0x3d6f6803	0.058448803
28	0x3d8d8b12	0.06911291
29	0x3d48c909	0.049019847
30	0x3db9a43b	0.090645276
31	0x3d31995f	0.043359157

feature.12.weight f4 [64, 32, 3, 3]
0	0x3a3ebedc	0.0007276365
1	0xbdaba31c	-0.0838072
2	0x3dbe446f	0.092903964
3	0x3bfffc29	0.0078120423
4	0xbd6cc2e0	-0.057803035
5	0x3c0bd316	0.0085342135
6	0x3d79b516	0.060963713
7	0x3d000304	0.031252876
8	0xbd0d91c5	-0.034562845
9	0xbd7fa154	-0.062409714
10	0x3b8b001c	0.0042419564
11	0x3ce1c55e	0.027559932
12	0x3c9d840d	0.019228006
13	0x3d6fe79c	0.05857049
14	0x3b771da7	0.0037706883
15	0xbd32cfb8	-0.043655127
16	0x3d0b4f3a	0.034011103
17	0xbd3f90e6	-0.046769045
18	0xbd1633eb	-0.036670607
19	0x3d4800b5	0.0488288
20	0x3cc02a8a	0.023457784
21	0xbc0a49bd	-0.008440432
22	0xbdaff34f	-0.08591329
23	0xbd10f010	-0.03538519
24	0x3cdb2773	0.02675221
25	0x3d2544d3	0.04034884
26	0x3dc93ef0	0.098264575
27	0x3d71535c	0.05891739
28	0x3dbd5136	0.092440054
29	0xbbe538bf	-0.00699529
30	0x3d2c5ed2	0.042082615
31	0x3ce97510	0.028498203
32	0x3b69e41e	0.0035688947
33	0x3d436b42	0.04770971
34	0x3d809897	0.06279104
35	0xbdc99167	-0.098421864
36	0xbcfb5c93	-0.030683791
37	0x3c292ec4	0.010326091
38	0xbc181dff	-0.009284495
39	0xbd410294	-0.0471216
40	0xbdbc4e69	-0.09194643
41	0xbd827eb1	-0.06371821
42	0xbcac329e	-0.02102023
43	0xbd80cb13	-0.06288733
44	0xbd56c6c3	-0.052435648
45	0xbb2578b0	-0.0025248937
46	0xbdbdec57	-0.09273594
47	0xbd379754	-0.044822052
48	0xba656a93	-0.00087515375
49	0xbbbcc403	-0.005760671
50	0xbce50484	-0.027956255
51	0xbcd07dfb	-0.025450697
52	0x3d33defe	0.043913834
53	0x3cd06ed0	0.025443465
54	0x3d0e3da6	0.03472676
55	0x3d54f388	0.051990062
56	0x3d627eb9	0.055296633
57	0xbd1ec9ee	-0.038766794
58	0xbaf67112	-0.0018802008
59	0xbd21a57c	-0.03946446
60	0x3c9f6248	0.019456044
61	0xbc188244	-0.0093084015
62	0xbd6e5f4d	-0.058196355
63	0xbcf57580	-0.029963255
64	0xbd6d719d	-0.05796968
65	0xbd87799d	-0.06614993
66	0xbc63b691	-0.013898508
67	0xbdc49fb2	-0.09600772
68	0x3d6edb1f	0.05831444
69	0x399a3d23	0.0002941872
70	0x3db9cca3	0.090722345
71	0x3d9fecc8	0.07808834
72	0xbcac5bbf	-0.021039842
73	0x3d6fcbe2	0.058544047
74	0xbd2172ec	-0.03941624
75	0x3b672e8e	0.0035275551
76	0x3d2e687b	0.04258011
77	0xbca5c45b	-0.020235231
78	0xbd4dbcfc	-0.050229058
79	0x3c875549	0.01652016
80	0xbce37d4b	-0.027769705
81	0xbd858932	-0.065203086
82	0x3da26014	0.07928482
83	0xbc80a8ab	-0.015705427
84	0xbdb1cfa0	-0.086821795
85	0xbc783134	-0.01514845
86	0xbaa991da	-0.0012937144
87	0xbcbe9603	-0.02326489
88	0xbe0caf6a	-0.1373879
89	0xbd068aa6	-0.03284707
90	0xb9e0b7c0	-0.00042861514
91	0x3c76c9f3	0.015062797
92	0xbd08124a	-0.033220567
93	0xbdad63e7	-0.084663205
94	0x3d7867da	0.060645916
95	0x3a6f1bd7	0.0009121275
96	0xbce20406	-0.02758981
97	0x3c018cbc	0.007907089
98	0x3d13aeb1	0.03605527
99	0x3c47173c	0.012151536
100	0xbaf2d212	-0.0018525741
101	0xbe06b293	-0.13154058
102	0xbd89a2e5	-0.06720523
103	0x3cb7be24	0.022429533
104	0x3d49740a	0.04918293
105	0xbd2d84e6	-0.04236307
106	0xbdfad780	-0.122481346
107	0xbd7ce17d	-0.06173848
108	0xbd2cdd48	-0.042203218
109	0xbcee1bd1	-0.029065998
110	0xbd030d65	-0.031995196
111	0x3c35f908	0.011106737
112	0x3d1b8ba6	0.037974976
113	0xbaf10fef	-0.0018391589
114	0x3cc64d9c	0.024206929
115	0xb95441d0	-0.00020242413
116	0x3ca4097d	0.020024056
117	0xbc4ec000	-0.012619019
118	0xbd8295c2	-0.0637622
119	0xbc48e58e	-0.012261761
120	0x3d71622b	0.05893151
121	0x3c7a3b52	0.015272932
122	0x3d336c93	0.043804716
123	0xbd64b055	-0.055832226
124	0xbd6f2d06	-0.058392547
125	0xbd967c7e	-0.07347964
126	0xbd1cb604	-0.03825952
127	0x3cd2c94e	0.025730755
128	0x3ca8a190	0.020584852
129	0x3ddb8a22	0.10719706
130	0x3d675a56	0.056482635
131	0xbc952fe3	-0.01821131
132	0x3d910807	0.07081609
133	0x3d05f059	0.032699917
134	0x392f090a	0.00016692668
135	0xbbb6f17d	-0.005582987
136	0xba3fd21b	-0.000731738
137	0x3ce9f191	0.02855757
138	0xbba962a8	-0.0051692314
139	0x3cbdd6c3	0.023173695
140	0xbd120a1d	-0.035654176
141	0x3d094f0d	0.033522654
142	0xbc68c69d	-0.014207509
143	0xbd83a7ac	-0.06428465
144	0x3d8859f8	0.06657785
145	0x3c8de7a3	0.017322367
146	0x3c9fcaca	0.019505877
147	0xbd26233c	-0.040560946
148	0x3ce50d37	0.027960403
149	0xba47f50a	-0.0007627761
150	0xbce06120	-0.027390063
151	0x3ca54e4e	0.02017894
152	0x3c886442	0.01664937
153	0xbd1a087d	-0.03760575
154	0xbca299ff	-0.019848822
155	0xbd6de34a	-0.058078088
156	0x3c5e8a2e	0.013582749
157	0xbc8db216	-0.017296832
158	0x3d93ed69	0.07223017
159	0xbd2bb81d	-0.04192363
160	0xbc3c2907	-0.011484391
161	0x3d86c477	0.065804414
162	0xbc821934	-0.015881158
163	0x3d39f6a0	0.045401216
164	0xbd18d700	-0.037314415
165	0x3bd0c81d	0.0063715116
166	0xbce7923f	-0.028267978
167	0x3b877bc6	0.004134628
168	0xbcdf3c55	-0.027250448
169	0x3b33357a	0.0027345107
170	0xbd759cab	-0.059963863
171	0xbd431706	-0.04762938
172	0xbd28eae4	-0.041239634
173	0x3cb3fe59	0.021971868
174	0xbbc6e3dc	-0.0060696434
175	0xbd63b863	-0.055595767
176	0xbc4c3645	-0.012464111
177	0xbd7a9c32	-0.061184116
178	0xbd1e5319	-0.038653467
179	0x3cce9751	0.025218638
180	0xbbb1ba1d	-0.0054237978
181	0xbc6af7c3	-0.014341298
182	0x3cc98367	0.02459879
183	0xbd2ded72	-0.042462774
184	0xba77e3d9	-0.0009456254
185	0xbd7666ea	-0.06015674
186	0x3d98c559	0.07459516
187	0x3db5f1a5	0.08883981
188	0x3d9c9a65	0.07646636
189	0xbd4f1741	-0.050559286
190	0xbd37e4e9	-0.04489604
191	0xbd308b6a	-0.043101706
192	0x3d086f02	0.03330899
193	0xbd3d0894	-0.04615076
194	0x3df78b05	0.12087063
195	0x3d090f65	0.033461947
196	0x3aa738a4	0.0012757969
197	0xbc1741c9	-0.009231993
198	0x3aee41f6	0.0018177617
199	0x3d817627	0.06321364
200	0xbd87fd12	-0.06640066
201	0xb9b2b39b	-0.00034084622
202	0x3dc38df1	0.095485575
203	0xbad33f60	-0.001611691
204	0xbd49e323	-0.04928888
205	0xbcbdf007	-0.023185743
206	0xbdaf65c0	-0.08564329
207	0xbd05887f	-0.032600876
208	0xbdbf4be0	-0.09340644
209	0xbdc1b3c8	-0.09458119
210	0x3cdc0ce8	0.026861623
211	0x3dcd5b54	0.10027185
212	0x3e02bc6a	0.12767187
213	0xbd5cc1be	-0.053895704
214	0xbcb17da9	-0.021666365
215	0xbd544564	-0.05182399
216	0x3d9e5f34	0.07733002
217	0xbd0383ba	-0.032108046
218	0x3c489455	0.012242396
219	0xbd0dd34d	-0.03462534
220	0xbd146b62	-0.03623522
221	0x3dd0a684	0.1018801
222	0xbd72acf4	-0.059246972
223	0xbd883952	-0.06651558
224	0xbda59a46	-0.08086066
225	0xbc61d0af	-0.013782664
226	0xbe2bc31f	-0.16773652
227	0x3d489cb1	0.048977558
228	0x3cfa7c91	0.030576976
229	0xbdad966c	-0.08475956
230	0xbda0619e	-0.07831119
231	0x3d15a712	0.036536284
232	0xbdcc3970	-0.09971893
233	0x3bd1f3ab	0.0064072213
234	0x3d442773	0.047889184
235	0xbc2f9c91	-0.010718481
236	0x3d0ff0c5	0.035141725
237	0xbca29b65	-0.019849489
238	0xbd6e72f3	-0.058215093
239	0xbc98f2e5	-0.018670509
240	0x3d334779	0.043769334
241	0xbd834137	-0.06408923
242	0x3d1e5ff9	0.038665745
243	0x3d49c982	0.04926444
244	0x3d9156f9	0.07096667
245	0x3daecf08	0.08535582
246	0x3c7bad88	0.015361197
247	0x3d135b18	0.035975546
248	0x3d8d55fb	0.06901165
249	0xbce1e69d	-0.027575785
250	0xbd8ed226	-0.069736764
251	0xbd77bf90	-0.060485423
252	0x3c197564	0.009366367
253	0xbc024059	-0.007949912
254	0x3c868ea9	0.016425448
255	0x39ad1129	0.00033009917

feature.12.bias f4 [64]
0	0xbaf81828	-0.0018928098
1	0xb9a2454b	-0.00030950675
2	0xba156bc4	-0.0005699957
3	0xba38f5f5	-0.00070556934
4	0xbb00a285	-0.001962812
5	0x3b067ca5	0.0020521071
6	0xbae3b61a	-0.0017372996
7	0xba497d7e	-0.00076862413
8	0x3aa9c319	0.001295182
9	0x3ae805ab	0.0017701884
10	0x3a9ca900	0.0011952221
11	0x392424ec	0.00015654013
12	0x3881a676	6.182205e-05
13	0xb9e4b35b	-0.0004362118
14	0xbac9b8f9	-0.0015390209
15	0x3ac9c5d1	0.0015394037
16	0xba45f463	-0.000755137
17	0x3a245539	0.00062688027
18	0xbb1c9d82	-0.0023897593
19	0x38839d09	6.275817e-05
20	0xb923aba6	-0.00015608835
21	0x3ae80e27	0.0017704413
22	0xbb053de8	-0.0020331088
23	0xba8a696c	-0.0010559983
24	0xba359e2f	-0.0006928173
25	0xbae2638b	-0.0017272098
26	0x3a3a4d15	0.0007106823
27	0xbab5db77	-0.001387461
28	0x3b1a8b29	0.002358148
29	0x3ad395a0	0.0016142614
30	0xbaba108a	-0.0014195603
31	0x39c3f41b	0.0003737517
32	0x3b187a12	0.002326612
33	0xbaf87ea9	-0.0018958646
34	0x38770b51	5.889993e-05
35	0x3ad932fd	0.0016570982
36	0x39495e29	0.00019203931
37	0xbaa7c865	-0.0012800811
38	0xba758ef8	-0.00093673123
39	0xbacefe58	-0.0015792353
40	0xbae665a5	-0.00175779
41	0x3ace203f	0.0015726163
42	0xbafa360e	-0.0019089596
43	0xbaabb94c	-0.0013101487
44	0x3a4da903	0.0007845314
45	0xbb03e5aa	-0.0020125904
46	0xbafb2015	-0.0019159341
47	0x395cba58	0.00021050253
48	0x3ac2741b	0.0014835628
49	0xbae465a1	-0.0017425307
50	0xb98644a1	-0.00025609604
51	0x3a66925f	0.00087956147
52	0xbad6b398	-0.0016380427
53	0x3ae1744d	0.0017200798
54	0x3ab8e75d	0.0014107038
55	0x3a3d64fe	0.0007224827
56	0x3b099c78	0.0020997804
57	0xbadced09	-0.001685531
58	0xbad2c23e	-0.0016079617
59	0x3a7d3254	0.00096586836
60	0x3b1740f8	0.0023079496
61	0xbb189a63	-0.002328538
62	0xba152112	-0.0005688827
63	0xba727146	-0.00092484464

feature.13.weight f4 [64]
0	0x3e606d6a	0.21916738
1	0x3e52255e	0.20522067
2	0x3e87449c	0.26419532
3	0x3e48d8fd	0.19614024
4	0x3e5e878e	0.21731398
5	0x3e88dc18	0.26730418
6	0x3e6a958e	0.22908613
7	0x3e522dbb	0.20525257
8	0x3e688253	0.22705965
9	0x3e6025a4	0.21889359
10	0x3e8c64fc	0.27420795
11	0x3e628d50	0.22124219
12	0x3e3e8600	0.18605804
13	0x3e71c808	0.23611462
14	0x3e408d68	0.18803942
15	0x3e5cde87	0.21569262
16	0x3e7741e7	0.24146233
17	0x3e5a3608	0.21309674
18	0x3e755c5a	0.2396101
19	0x3e53d84f	0.20687984
20	0x3e73b94a	0.23801151
21	0x3e5cc6fb	0.2156028
22	0x3e733817	0.23751865
23	0x3e589940	0.2115221
24	0x3e7a1c25	0.24424799
25	0x3e5d1341	0.21589376
26	0x3e48c4d9	0.19606341
27	0x3e9962c2	0.2995816
28	0x3e8c590f	0.27411696
29	0x3e8e65aa	0.2781194
30	0x3e7328ed	0.2374608
31	0x3e8db8df	0.27680108
32	0x3e588819	0.21145667
33	0x3e8ffba4	0.28121674
34	0x3e7d3887	0.24728595
35	0x3e5b3537	0.21407019
36	0x3e88f609	0.2675021
37	0x3e882a18	0.26594615
38	0x3e7ef775	0.24899085
39	0x3e7362b0	0.23768115
40	0x3e66fbe5	0.22557028
41	0x3e6c9b24	0.23106056
42	0x3e618049	0.22021593
43	0x3e80f227	0.25184748
44	0x3e7bf508	0.24605191
45	0x3e8086c7	0.25102827
46	0x3e918472	0.2842136
47	0x3e889471	0.26675752
48	0x3e7f7ede	0.2495074
49	0x3e8e88b1	0.27838662
50	0x3e762523	0.24037604
51	0x3e4e84ed	0.20167895
52	0x3e885b7f	0.26632306
53	0x3e95c993	0.2925535
54	0x3e83e31d	0.2575921
55	0x3e5eb60e	0.21749136
56	0x3e578b95	0.2104934
57	0x3e773d16	0.24144396
58	0x3e8466df	0.25859734
59	0x3e8b90bc	0.2725886
60	0x3e6ebd7a	0.23314467
61	0x3e54660b	0.20742051
62	0x3e5fbc7a	0.21849242
63	0x3e8e8dd1	0.27842572

feature.13.bias f4 [64]
0	0xbe09de97	-0.13463818
1	0xbdddb59c	-0.10825655
2	0xbe3b8481	-0.18312265
3	0xbe1ceb6a	-0.15324178
4	0xbe2c3ab3	-0.16819267
5	0xbe503344	-0.20332056
6	0xbe063eb2	-0.13109854
7	0xbe1f0829	-0.15530457
8	0xbe12ab39	-0.14323129
9	0xbdd57d73	-0.10424318
10	0xbe7ccf2b	-0.24688403
11	0xbe3049ed	-0.172157
12	0xbe29110b	-0.16510408
13	0xbe38beac	-0.18041486
14	0xbe21401f	-0.15747117
15	0xbe4e5b1a	-0.2015194
16	0xbe802463	-0.2502776
17	0xbe24308c	-0.16034144
18	0xbe2c6145	-0.1683398
19	0xbdcfeda2	-0.10152747
20	0xbe5f462e	-0.21804115
21	0xbde1e3ea	-0.11029799
22	0xbe6bc7a2	-0.23025373
23	0xbdf2d509	-0.118570395
24	0xbe3483e2	-0.17628434
25	0xbe07a1fc	-0.13245386
26	0xbe0fdf4c	-0.14050025
27	0xbe803204	-0.2503816
28	0xbe7ecc4d	-0.24882622
29	0xbe6a72e6	-0.22895393
30	0xbe1d788b	-0.15378015
31	0xbe721148	-0.23639405
32	0xbe11889b	-0.14212267
33	0xbe857a5a	-0.2606991
34	0xbe561eb9	-0.20910157
35	0xbe348a2f	-0.17630838
36	0xbe4e350c	-0.20137423
37	0xbe575e4a	-0.21032062
38	0xbdb3123c	-0.08743712
39	0xbe27975c	-0.16366333
40	0xbe5b33bb	-0.21406452
41	0xbe3aae2d	-0.18230505
42	0xbe19ffcd	-0.15038987
43	0xbe53c0b3	-0.20678978
44	0xbe47cdc6	-0.1951209
45	0xbe3b40f3	-0.18286495
46	0xbe5184af	-0.20460771
47	0xbe3aefc2	-0.18255523
48	0xbe6cc531	-0.23122098
49	0xbe745277	-0.23859583
50	0xbe162062	-0.1466079
51	0xbe184aba	-0.14872256
52	0xbe28d9d7	-0.1648935
53	0xbe8c1ebc	-0.27367198
54	0xbe6012a8	-0.21882117
55	0xbe455489	-0.19270529
56	0xbe1f1b74	-0.15537816
57	0xbe7416d7	-0.23836838
58	0xbe80c69c	-0.25151527
59	0xbe86f222	-0.26356608
60	0xbe61fac4	-0.22068316
61	0xbe3f5642	-0.18685248
62	0xbe0b1c5b	-0.13585036
63	0xbe55b0e7	-0.20868264

feature.13.running_mean f4 [64]
0	0xbe21ead0	-0.1581223
1	0xbe0601cc	-0.13086623
2	0xbdc16a74	-0.094441324
3	0x3d28bed4	0.041197613
4	0xbe4b5905	-0.19858177
5	0xbebba146	-0.3664648
6	0xbe9d5fda	-0.3073719
7	0xbe2a2081	-0.16613962
8	0xbe3175b4	-0.17330056
9	0xbea48900	-0.32135773
10	0xbe0eb758	-0.13937128
11	0xbe9b0a5f	-0.3028135
12	0x3d8f1c00	0.069877625
13	0xbd996c3f	-0.074913494
14	0x3d857b8d	0.06517706
15	0xbe0a4044	-0.13501078
16	0xbdcd74f7	-0.10032075
17	0xbe1c18f0	-0.15243888
18	0xbe55609b	-0.20837633
19	0xbde812a8	-0.113316834
20	0xbde16705	-0.110059775
21	0xbe038e8d	-0.12847348
22	0xbe3a4b2e	-0.18192741
23	0xbe249c82	-0.16075328
24	0xbe923384	-0.28554928
25	0xbe802df2	-0.25035053
26	0xbe26184c	-0.16220206
27	0xbe9c83f6	-0.30569428
28	0xbe4be63d	-0.19912048
29	0xbec47287	-0.38368627
30	0xbddca737	-0.10774081
31	0xbe5a491a	-0.21316949
32	0xbd0cf493	-0.03441293
33	0xbe91a311	-0.28444722
34	0xbe1ddec2	-0.15417007
35	0xbd6b2544	-0.057408586
36	0xbeb1ae9a	-0.34703523
37	0xbe2e17cd	-0.17001267
38	0xbe7ea69b	-0.24868242
39	0xbe62d6a9	-0.22152199
40	0xbe623aa4	-0.22092682
41	0xbe615d26	-0.2200819
42	0xbe1452f5	-0.1448477
43	0xbe7baf1c	-0.24578518
44	0xbe40b207	-0.18817912
45	0xbe95770a	-0.29192382
46	0xbe4826ca	-0.19546047
47	0xbe9cd45b	-0.30630764
48	0xbd902daf	-0.070399635
49	0xbe6d4329	-0.23170151
50	0xbe5d2230	-0.21595073
51	0xbe2fa62f	-0.17153238
52	0xbc6c60c2	-0.014427366
53	0xbe8d56b8	-0.27605224
54	0xbe865f09	-0.2624438
55	0xbe1a476d	-0.1506631
56	0xbea63951	-0.32465604
57	0xbdbe6270	-0.09296119
58	0xbe969dde	-0.29417318
59	0xbeab8318	-0.33498454
60	0xbdfe6019	-0.12420673
61	0xbe141c39	-0.14463891
62	0xbdcb0a7e	-0.099141106
63	0xbe2f1cbe	-0.17100808

feature.13.running_var f4 [64]
0	0x3d049aba	0.03237412
1	0x3cd6be54	0.026213802
2	0x3d12153d	0.035664786
3	0x3cedd5d9	0.029032635
4	0x3ccf1aec	0.025281392
5	0x3d3837dc	0.044975147
6	0x3cf3233f	0.029679893
7	0x3cd098fe	0.025463577
8	0x3d154851	0.03644592
9	0x3cede54e	0.029040005
10	0x3d1cc83b	0.038276892
11	0x3d08ed88	0.033429652
12	0x3cdebc33	0.02718935
13	0x3cec09cc	0.028813265
14	0x3cb07560	0.021540344
15	0x3ce2f41c	0.027704291
16	0x3cc8ff9b	0.024535945
17	0x3cd8ef9b	0.02648144
18	0x3d1e8a04	0.03870584
19	0x3ccc2648	0.024920598
20	0x3cde82c5	0.027161965
21	0x3cf91253	0.030404245
22	0x3ceef29d	0.029168421
23	0x3cf07baf	0.029355852
24	0x3d262f77	0.04057261
25	0x3cfa1d0e	0.030531432
26	0x3d074c31	0.033031646
27	0x3d1baa3f	0.038004156
28	0x3ce61b1f	0.028089104
29	0x3d15aed7	0.036543693
30	0x3d04689e	0.032326333
31	0x3d021584	0.0317588
32	0x3cc334fa	0.023828972
33	0x3d18a971	0.037270967
34	0x3d17b8c8	0.037041456
35	0x3cc548a9	0.024082499
36	0x3d19bcfe	0.037533753
37	0x3d169d7a	0.036771275
38	0x3d33a66d	0.043859888
39	0x3d03a85d	0.032142986
40	0x3cf14f93	0.02945689
41	0x3d10fac4	0.0353954
42	0x3d01c092	0.03167779
43	0x3d205f5f	0.039153453
44	0x3cdbb902	0.026821617
45	0x3ce3d9de	0.027813848
46	0x3d1e8da4	0.038709298
47	0x3d1ccf56	0.03828367
48	0x3ceccaed	0.028905356
49	0x3d00d8d9	0.031456802
50	0x3cfdf6ed	0.031001532
51	0x3ce28114	0.02764944
52	0x3d0e0e5b	0.03468166
53	0x3d09719f	0.033555623
54	0x3d2738a5	0.040825505
55	0x3ce1effa	0.02758025
56	0x3cb6a796	0.022296708
57	0x3ce3a88a	0.027790327
58	0x3d14c367	0.036319163
59	0x3d309161	0.043107394
60	0x3d01a7e6	0.03165426
61	0x3ce96565	0.028490731
62	0x3cb1acbd	0.021688813
63	0x3d358967	0.04432049

feature.16.weight f4 [96, 64, 3, 3]
0	0x3d3fb0a8	0.046799332
1	0x3c924ce9	0.01785894
2	0xbbc5353b	-0.0060183085
3	0xbb927512	-0.0044695223
4	0x3c147cbd	0.009062943
5	0x3cc8a0c2	0.024490718
6	0x3d2b898b	0.041879218
7	0x3d66f813	0.056388926
8	0x3d0cc79b	0.034370046
9	0x3a89c3d5	0.0010510633
10	0xbc0f31c3	-0.008739891
11	0x3cb3add5	0.021933476
12	0xbd69ac2e	-0.05704897
13	0xbcaf9a72	-0.02143595
14	0x3c992c5a	0.018697906
15	0xbbb5cbc1	-0.005547971
16	0x3c5bc016	0.013412496
17	0x3c0853fc	0.008320805
18	0xbca37284	-0.019952066
19	0xbc94429c	-0.018098168
20	0xbc5ded61	-0.013545365
21	0x3d09d391	0.03364903
22	0x3d465d22	0.048428662
23	0x3d0b5ad4	0.034022167
24	0xbd8c5f61	-0.068541296
25	0xbd5f108c	-0.05445914
26	0xbc988d9a	-0.018622208
27	0x39f7c83a	0.00047260692
28	0x3d067c4e	0.03283339
29	0x3cbc4497	0.022981925
30	0x3d0652da	0.032793857
31	0x3d0eee2e	0.034895115
32	0x3c8bd98a	0.017071504
33	0xbc6f98c2	-0.014623823
34	0xbb7d0e42	-0.0038613235
35	0x3bf11b75	0.0073580095
36	0x3c8af7d4	0.016963877
37	0x3bdd8d3e	0.006761222
38	0xbbf38c7c	-0.0074325185
39	0xbbd06a6f	-0.006360344
40	0xbbbc00ff	-0.0057374234
41	0x3c8fc40f	0.017549543
42	0x3af302c2	0.0018540251
43	0xbb108ac0	-0.0022055358
44	0xbb3c94ad	-0.002877514
45	0x3b64e734	0.0034927847
46	0xbc11135e	-0.008854715
47	0x3caace01	0.020850183
48	0x3d2cffd0	0.04223615
49	0x3d3d765d	0.04625546
50	0x3d5d4b54	0.054026917
51	0xbc96eae6	-0.018422555
52	0xbc36f80a	-0.011167536
53	0xbcfdb0e3	-0.030968135
54	0xbb48ee78	-0.0030659717
55	0xbca09bb3	-0.019605493
56	0x3a5d73e5	0.00084477506
57	0x3d0fa481	0.035068993
58	0xbc74954f	-0.014928176
59	0xbace4df6	-0.0015739787
60	0xbc02e6bf	-0.0079895845
61	0xbd04f9f3	-0.032464933
62	0xbd72e599	-0.059300993
63	0x3c8e502d	0.017372215
64	0x3b97c8bb	0.0046320832
65	0x396e31f5	0.00022716059
66	0x3cb551e4	0.022133775
67	0x3cadf7a7	0.021236254
68	0x3da5154d	0.080607034
69	0xbbfc09b4	-0.0076915864
70	0xbb9a4ba8	-0.004708726
71	0x3c770408	0.015076645
72	0x3bae6f66	0.0053233383
73	0xbc904025	-0.017608711
74	0xbd15452b	-0.036442917
75	0x3d1a8d54	0.037732437
76	0xba360dad	-0.0006944787
77	0x3acc60fc	0.0015592868
78	0x3d0bc924	0.03412737
79	0x3cb52c0e	0.022115733
80	0x3c5d175c	0.013494339
81	0x3c3ce824	0.011529956
82	0x3d0aa106	0.03384497
83	0x3cd61b20	0.026135981
84	0xbd2dcf24	-0.042433873
85	0xbc938f40	-0.018012643
86	0xbcb7d6e9	-0.022441344
87	0xbd1cc964	-0.038278
88	0xbced8bce	-0.028997328
89	0xbcf9ec8d	-0.030508304
90	0x3cd7dc10	0.026350051
91	0x3cf95c86	0.030439626
92	0x3c29aa3d	0.010355529
93	0x3c3e69c5	0.011621897
94	0x3c63aba8	0.0138959065
95	0x3bbe6693	0.0058105676
96	0x3cc2168d	0.023692394
97	0x3ca9c78a	0.02072503
98	0xbba7de18	-0.005122911
99	0xbbf2ad09	-0.0074058813
100	0xbd19439c	-0.037417993
101	0xbc58bc7e	-0.013228534
102	0x3d31ed6c	0.043439314
103	0x3cb1f05c	0.021721058
104	0x3c975100	0.018471241
105	0x3adb662e	0.0016738826
106	0x3c6d6ce0	0.01449129
107	0x3bf2bf4f	0.0074080597
108	0xbc9a4560	-0.018831909
109	0xbd0e22c1	-0.034701113
110	0xbc70a389	-0.014687427
111	0x3c275690	0.010213509
112	0xbcd3dd33	-0.025862312
113	0xbc512b71	-0.012766705
114	0xbba47cfe	-0.005019783
115	0xbbeb4b01	-0.007180572
116	0xbc39df6d	-0.011344773
117	0x3ccdb799	0.02511196
118	0x3cd4fff2	0.02600095
119	0x3c590042	0.01324469
120	0xbd09e3d8	-0.033664554
121	0xbd70518c	-0.05867152
122	0xbd80275b	-0.062575065
123	0x3c35bce8	0.011092402
124	0xbc8c48ac	-0.017124496
125	0xbd1301fa	-0.035890557
126	0xbcbe2b24	-0.02321393
127	0x3b081ea7	0.0020770223
128	0x3c2bc784	0.01048458
129	0x3c152ba8	0.009104647
130	0x3cf4c409	0.029878633
131	0x3cdc7a6e	0.026913848
132	0x3ca2c05b	0.019867113
133	0x3c64be97	0.013961456
134	0x3c0869a5	0.008325969
135	0xbc35b32e	-0.011090083
136	0x3cb5c7f8	0.02219008
137	0xbc077986	-0.00826872
138	0xbc8efe6f	-0.017455308
139	0xbce74762	-0.02823228
140	0xbcfeaf58	-0.03108947
141	0x3d10d66f	0.03536075
142	0x3d0db9c7	0.034601
143	0x3c5db703	0.013532403
144	0x3b3959c6	0.002828227
145	0xbd082720	-0.033240438
146	0xbd24753d	-0.04015087
147	0x3ca2e02d	0.019882286
148	0x3c8ffcbe	0.017576572
149	0xbbb42978	-0.0054981075
150	0xbcc5ea2a	-0.02415951
151	0xbc82606f	-0.015915124
152	0xbcab8781	-0.020938637
153	0x3c644994	0.013933558
154	0x3cda668d	0.026660228
155	0x3c92f199	0.017937468
156	0x3c1b3307	0.009472615
157	0x3c075707	0.008260495
158	0x3c5f1310	0.013615385
159	0xbb55eada	-0.0032641203
160	0xbc56f5ef	-0.013120159
161	0xbc25687a	-0.01009571
162	0xbd4363e8	-0.0477027
163	0xbd0c514c	-0.03425722
164	0xbc4dcdd9	-0.012561285
165	0x3b06b563	0.0020554892
166	0x3b63251a	0.0034659565
167	0x3b343ce2	0.002750211
168	0xbc8fc6c5	-0.017550835
169	0xbbd1f313	-0.0064071505
170	0x3b10fac9	0.0022122136
171	0xbce314bc	-0.027719848
172	0xbb975ebb	-0.004619447
173	0xbc2ea611	-0.0106597105
174	0x3c34a8b7	0.011026553
175	0xbca40df6	-0.020026188
176	0xbcda8646	-0.026675355
177	0xbc41805c	-0.011810388
178	0xbc24006a	-0.010009864
179	0xbaaf5af5	-0.0013378548
180	0xbc05980e	-0.008153928
181	0xbc0c1a0d	-0.008551133
182	0xbb7d3273	-0.0038634806
183	0x3bf6b717	0.00752915
184	0x3c03e603	0.008050445
185	0x3ca63e0e	0.020293262
186	0x3bb46f9d	0.0055064694
187	0x3bf21b9e	0.007388546
188	0x3ced2d5c	0.028952293
189	0x3c809793	0.015697276
190	0x3d49c13b	0.049256545
191	0x3cd68fe6	0.026191663
192	0xbd108e31	-0.035291854
193	0xbd2465f6	-0.0401363
194	0xbd038cac	-0.032116577
195	0xbd261646	-0.040548585
196	0xbd110623	-0.035406243
197	0xbd38ab70	-0.04508537
198	0xbcc07571	-0.0234935
199	0xbc97991a	-0.018505622
200	0x3cad1d8b	0.021132251
201	0xbc755e41	-0.014976085
202	0x3c973d74	0.01846192
203	0x3ba74819	0.0051050303
204	0x3c5ce018	0.0134811625
205	0x3cf5349b	0.02993231
206	0x3c9bb975	0.019009331
207	0x3ba180cf	0.0049286853
208	0x392b2e1c	0.00016325008
209	0xbca42165	-0.020035455
210	0xbc55d21b	-0.013050581
211	0x3c4c9deb	0.012488822
212	0xb89ddf5c	-7.527947e-05
213	0xbbe60090	-0.00701911
214	0xbb719615	-0.0036863138
215	0x3b9413a2	0.004518942
216	0x3ce93a30	0.028470129
217	0x3c975f84	0.018478163
218	0xbc400dd4	-0.011722047
219	0x3cce620f	0.025193242
220	0x3d16152b	0.03664128
221	0x3d15bc03	0.036556255
222	0xbcc9605d	-0.024582082
223	0x3b569a88	0.0032745916
224	0x3c74e209	0.014946469
225	0xbd1c8ffc	-0.03822325
226	0xbd07d969	-0.033166323
227	0xbc835a31	-0.016034218
228	0xbd0593ac	-0.032611534
229	0xbce25b58	-0.027631447
230	0xbd07e7a1	-0.033179883
231	0x3c930e2e	0.017951097
232	0x3cfd9043	0.030952578
233	0x3cdb258d	0.026751304
234	0xbc01fa00	-0.00793314
235	0xbd315e9c	-0.043303117
236	0xbd14e402	-0.036350258
237	0x3c3595e0	0.011083096
238	0xbcaeac5f	-0.021322427
239	0xbcd68fed	-0.026191676
240	0xbb8f9d4d	-0.0043827654
241	0xbd0cc42e	-0.03436678
242	0xbca908fa	-0.020634163
243	0x3c74634d	0.014916253
244	0x3c9f3097	0.01943235
245	0x3cc2b8e6	0.023769807
246	0x3b876301	0.004131675
247	0x3c63b13d	0.013897237
248	0x3bfedc51	0.0077777286
249	0x3cb0dd23	0.021589821
250	0x3d0ae8be	0.033913366
251	0x3c2b13ff	0.010441779
252	0x3bb14b17	0.0054105627
253	0x3badd44b	0.0053048483
254	0x3b27e7db	0.0025620374
255	0x3cbb793f	0.022884963
